…
z_std': 100.2158}, {'type': 'GridSample', 'grid_size': 10.0}, {'type': 'ToTensor'}]}}, 'train': {'epochs': 100, 'optimizer': {'type': 'AdamW', 'lr': 0.001, 'weight_decay': 0.0001}, 'scheduler': {'type': 'CosineAnnealingLR', 'T_max': 100}, 'batch_size': 2, 'num_workers': 4}, 'evaluation': {'interval': 1}, 'checkpoint': {'interval': 5}, 'log': {'interval': 50}}
[2025-09-19 13:17:42,090 INFO train.py line 34 12772] 使用设备: cuda
[2025-09-19 13:17:42,412 INFO train.py line 71 12772] 训练集样本数: 8935, 验证集样本数: 2130
[2025-09-19 13:17:42,822 INFO train.py line 78 12772] 模型结构: PointTransformerV3(
  (embedding): Embedding(
    (stem): PointSequential(
      (conv): SubMConv3d(9, 32, kernel_size=[5, 5, 5], stride=[1, 1, 1], padding=[1, 1, 1], dilation=[1, 1, 1], output_padding=[0, 0, 0], bias=False, algo=ConvAlgo.Native)
      (norm): BatchNorm1d(32, eps=0.001, momentum=0.01, affine=True, track_running_stats=True)
      (act): GELU(approximate='none')
    )
  )
  (enc): PointSequential(
    (enc0): PointSequential(
      (block0): Block(
        (cpe): PointSequential(
          (0): SubMConv3d(32, 32, kernel_size=[3, 3, 3], stride=[1, 1, 1], padding=[0, 0, 0], dilation=[1, 1, 1], output_padding=[0, 0, 0], algo=ConvAlgo.MaskImplicitGemm)
          (1): Linear(in_features=32, out_features=32, bias=True)
          (2): LayerNorm((32,), eps=1e-05, elementwise_affine=True)
        )
        (norm1): PointSequential(
          (0): LayerNorm((32,), eps=1e-05, elementwise_affine=True)
        )
        (attn): SerializedAttention(
          (attn_drop): Dropout(p=0.0, inplace=False)
          (qkv): Linear(in_features=32, out_features=96, bias=True)
          (proj): Linear(in_features=32, out_features=32, bias=True)
          (proj_drop): Dropout(p=0.0, inplace=False)
          (softmax): Softmax(dim=-1)
        )
        (norm2): PointSequential(
          (0): LayerNorm((32,), eps=1e-05, elementwise_affine=True)
        )
        (mlp): PointSequential(
          (0): MLP(
            (fc1): Linear(in_features=32, out_features=128, bias=True)
            (act): GELU(approximate='none')
            (fc2): Linear(in_features=128, out_features=32, bias=True)
            (drop): Dropout(p=0.0, inplace=False)
          )
        )
        (drop_path): PointSequential(
          (0): Identity()
        )
      )
      (block1): Block(
        (cpe): PointSequential(
          (0): SubMConv3d(32, 32, kernel_size=[3, 3, 3], stride=[1, 1, 1], padding=[0, 0, 0], dilation=[1, 1, 1], output_padding=[0, 0, 0], algo=ConvAlgo.MaskImplicitGemm)
          (1): Linear(in_features=32, out_features=32, bias=True)
          (2): LayerNorm((32,), eps=1e-05, elementwise_affine=True)
        )
        (norm1): PointSequential(
          (0): LayerNorm((32,), eps=1e-05, elementwise_affine=True)
        )
        (attn): SerializedAttention(
          (attn_drop): Dropout(p=0.0, inplace=False)
          (qkv): Linear(in_features=32, out_features=96, bias=True)
          (proj): Linear(in_features=32, out_features=32, bias=True)
          (proj_drop): Dropout(p=0.0, inplace=False)
          (softmax): Softmax(dim=-1)
        )
        (norm2): PointSequential(
          (0): LayerNorm((32,), eps=1e-05, elementwise_affine=True)
        )
        (mlp): PointSequential(
          (0): MLP(
            (fc1): Linear(in_features=32, out_features=128, bias=True)
            (act): GELU(approximate='none')
            (fc2): Linear(in_features=128, out_features=32, bias=True)
            (drop): Dropout(p=0.0, inplace=False)
          )
        )
        (drop_path): PointSequential(
          (0): DropPath(drop_prob=0.027)
        )
      )
    )
    (enc1): PointSequential(
      (down): SerializedPooling(
        (proj): Linear(in_features=32, out_features=64, bias=True)
        (norm): PointSequential(
          (0): BatchNorm1d(64, eps=0.001, momentum=0.01, affine=True, track_running_stats=True)
        )
        (act): PointSequential(
          (0): GELU(approximate='none')
        )
      )
      (block0): Block(
        (cpe): PointSequential(
          (0): SubMConv3d(64, 64, kernel_size=[3, 3, 3], stride=[1, 1, 1], padding=[0, 0, 0], dilation=[1, 1, 1], output_padding=[0, 0, 0], algo=ConvAlgo.MaskImplicitGemm)
          (1): Linear(in_features=64, out_features=64, bias=True)
          (2): LayerNorm((64,), eps=1e-05, elementwise_affine=True)
        )
        (norm1): PointSequential(
          (0): LayerNorm((64,), eps=1e-05, elementwise_affine=True)
        )
        (attn): SerializedAttention(
          (attn_drop): Dropout(p=0.0, inplace=False)
          (qkv): Linear(in_features=64, out_features=192, bias=True)
          (proj): Linear(in_features=64, out_features=64, bias=True)
          (proj_drop): Dropout(p=0.0, inplace=False)
          (softmax): Softmax(dim=-1)
        )
        (norm2): PointSequential(
          (0): LayerNorm((64,), eps=1e-05, elementwise_affine=True)
        )
        (mlp): PointSequential(
          (0): MLP(
            (fc1): Linear(in_features=64, out_features=256, bias=True)
            (act): GELU(approximate='none')
            (fc2): Linear(in_features=256, out_features=64, bias=True)
            (drop): Dropout(p=0.0, inplace=False)
          )
        )
        (drop_path): PointSequential(
          (0): DropPath(drop_prob=0.055)
        )
      )
      (block1): Block(
        (cpe): PointSequential(
          (0): SubMConv3d(64, 64, kernel_size=[3, 3, 3], stride=[1, 1, 1], padding=[0, 0, 0], dilation=[1, 1, 1], output_padding=[0, 0, 0], algo=ConvAlgo.MaskImplicitGemm)
          (1): Linear(in_features=64, out_features=64, bias=True)
          (2): LayerNorm((64,), eps=1e-05, elementwise_affine=True)
        )
        (norm1): PointSequential(
          (0): LayerNorm((64,), eps=1e-05, elementwise_affine=True)
        )
        (attn): SerializedAttention(
          (attn_drop): Dropout(p=0.0, inplace=False)
          (qkv): Linear(in_features=64, out_features=192, bias=True)
          (proj): Linear(in_features=64, out_features=64, bias=True)
          (proj_drop): Dropout(p=0.0, inplace=False)
          (softmax): Softmax(dim=-1)
        )
        (norm2): PointSequential(
          (0): LayerNorm((64,), eps=1e-05, elementwise_affine=True)
        )
        (mlp): PointSequential(
          (0): MLP(
            (fc1): Linear(in_features=64, out_features=256, bias=True)
            (act): GELU(approximate='none')
            (fc2): Linear(in_features=256, out_features=64, bias=True)
            (drop): Dropout(p=0.0, inplace=False)
          )
        )
        (drop_path): PointSequential(
          (0): DropPath(drop_prob=0.082)
        )
      )
    )
    (enc2): PointSequential(
      (down): SerializedPooling(
        (proj): Linear(in_features=64, out_features=128, bias=True)
        (norm): PointSequential(
          (0): BatchNorm1d(128, eps=0.001, momentum=0.01, affine=True, track_running_stats=True)
        )
        (act): PointSequential(
          (0): GELU(approximate='none')
        )
      )
      (block0): Block(
        (cpe): PointSequential(
          (0): SubMConv3d(128, 128, kernel_size=[3, 3, 3], stride=[1, 1, 1], padding=[0, 0, 0], dilation=[1, 1, 1], output_padding=[0, 0, 0], algo=ConvAlgo.MaskImplicitGemm)
          (1): Linear(in_features=128, out_features=128, bias=True)
          (2): LayerNorm((128,), eps=1e-05, elementwise_affine=True)
        )
        (norm1): PointSequential(
          (0): LayerNorm((128,), eps=1e-05, elementwise_affine=True)
        )
        (attn): SerializedAttention(
          (attn_drop): Dropout(p=0.0, inplace=False)
          (qkv): Linear(in_features=128, out_features=384, bias=True)
          (proj): Linear(in_features=128, out_features=128, bias=True)
          (proj_drop): Dropout(p=0.0, inplace=False)
          (softmax): Softmax(dim=-1)
        )
        (norm2): PointSequential(
          (0): LayerNorm((128,), eps=1e-05, elementwise_affine=True)
        )
        (mlp): PointSequential(
          (0): MLP(
            (fc1): Linear(in_features=128, out_features=512, bias=True)
            (act): GELU(approximate='none')
            (fc2): Linear(in_features=512, out_features=128, bias=True)
            (drop): Dropout(p=0.0, inplace=False)
          )
        )
        (drop_path): PointSequential(
          (0): DropPath(drop_prob=0.109)
        )
      )
      (block1): Block(
        (cpe): PointSequential(
          (0): SubMConv3d(128, 128, kernel_size=[3, 3, 3], stride=[1, 1, 1], padding=[0, 0, 0], dilation=[1, 1, 1], output_padding=[0, 0, 0], algo=ConvAlgo.MaskImplicitGemm)
          (1): Linear(in_features=128, out_features=128, bias=True)
          (2): LayerNorm((128,), eps=1e-05, elementwise_affine=True)
        )
        (norm1): PointSequential(
          (0): LayerNorm((128,), eps=1e-05, elementwise_affine=True)
        )
        (attn): SerializedAttention(
          (attn_drop): Dropout(p=0.0, inplace=False)
          (qkv): Linear(in_features=128, out_features=384, bias=True)
          (proj): Linear(in_features=128, out_features=128, bias=True)
          (proj_drop): Dropout(p=0.0, inplace=False)
          (softmax): Softmax(dim=-1)
        )
        (norm2): PointSequential(
          (0): LayerNorm((128,), eps=1e-05, elementwise_affine=True)
        )
        (mlp): PointSequential(
          (0): MLP(
            (fc1): Linear(in_features=128, out_features=512, bias=True)
            (act): GELU(approximate='none')
            (fc2): Linear(in_features=512, out_features=128, bias=True)
            (drop): Dropout(p=0.0, inplace=False)
          )
        )
        (drop_path): PointSequential(
          (0): DropPath(drop_prob=0.136)
        )
      )
      (block2): Block(
        (cpe): PointSequential(
          (0): SubMConv3d(128, 128, kernel_size=[3, 3, 3], stride=[1, 1, 1], padding=[0, 0, 0], dilation=[1, 1, 1], output_padding=[0, 0, 0], algo=ConvAlgo.MaskImplicitGemm)
          (1): Linear(in_features=128, out_features=128, bias=True)
          (2): LayerNorm((128,), eps=1e-05, elementwise_affine=True)
        )
        (norm1): PointSequential(
          (0): LayerNorm((128,), eps=1e-05, elementwise_affine=True)
        )
        (attn): SerializedAttention(
          (attn_drop): Dropout(p=0.0, inplace=False)
          (qkv): Linear(in_features=128, out_features=384, bias=True)
          (proj): Linear(in_features=128, out_features=128, bias=True)
          (proj_drop): Dropout(p=0.0, inplace=False)
          (softmax): Softmax(dim=-1)
        )
        (norm2): PointSequential(
          (0): LayerNorm((128,), eps=1e-05, elementwise_affine=True)
        )
        (mlp): PointSequential(
          (0): MLP(
            (fc1): Linear(in_features=128, out_features=512, bias=True)
            (act): GELU(approximate='none')
            (fc2): Linear(in_features=512, out_features=128, bias=True)
            (drop): Dropout(p=0.0, inplace=False)
          )
        )
        (drop_path): PointSequential(
          (0): DropPath(drop_prob=0.164)
        )
      )
      (block3): Block(
        (cpe): PointSequential(
          (0): SubMConv3d(128, 128, kernel_size=[3, 3, 3], stride=[1, 1, 1], padding=[0, 0, 0], dilation=[1, 1, 1], output_padding=[0, 0, 0], algo=ConvAlgo.MaskImplicitGemm)
          (1): Linear(in_features=128, out_features=128, bias=True)
          (2): LayerNorm((128,), eps=1e-05, elementwise_affine=True)
        )
        (norm1): PointSequential(
          (0): LayerNorm((128,), eps=1e-05, elementwise_affine=True)
        )
        (attn): SerializedAttention(
          (attn_drop): Dropout(p=0.0, inplace=False)
          (qkv): Linear(in_features=128, out_features=384, bias=True)
          (proj): Linear(in_features=128, out_features=128, bias=True)
          (proj_drop): Dropout(p=0.0, inplace=False)
          (softmax): Softmax(dim=-1)
        )
        (norm2): PointSequential(
          (0): LayerNorm((128,), eps=1e-05, elementwise_affine=True)
        )
        (mlp): PointSequential(
          (0): MLP(
            (fc1): Linear(in_features=128, out_features=512, bias=True)
            (act): GELU(approximate='none')
            (fc2): Linear(in_features=512, out_features=128, bias=True)
            (drop): Dropout(p=0.0, inplace=False)
          )
        )
        (drop_path): PointSequential(
          (0): DropPath(drop_prob=0.191)
        )
      )
      (block4): Block(
        (cpe): PointSequential(
          (0): SubMConv3d(128, 128, kernel_size=[3, 3, 3], stride=[1, 1, 1], padding=[0, 0, 0], dilation=[1, 1, 1], output_padding=[0, 0, 0], algo=ConvAlgo.MaskImplicitGemm)
          (1): Linear(in_features=128, out_features=128, bias=True)
          (2): LayerNorm((128,), eps=1e-05, elementwise_affine=True)
        )
        (norm1): PointSequential(
          (0): LayerNorm((128,), eps=1e-05, elementwise_affine=True)
        )
        (attn): SerializedAttention(
          (attn_drop): Dropout(p=0.0, inplace=False)
          (qkv): Linear(in_features=128, out_features=384, bias=True)
          (proj): Linear(in_features=128, out_features=128, bias=True)
          (proj_drop): Dropout(p=0.0, inplace=False)
          (softmax): Softmax(dim=-1)
        )
        (norm2): PointSequential(
          (0): LayerNorm((128,), eps=1e-05, elementwise_affine=True)
        )
        (mlp): PointSequential(
          (0): MLP(
            (fc1): Linear(in_features=128, out_features=512, bias=True)
            (act): GELU(approximate='none')
            (fc2): Linear(in_features=512, out_features=128, bias=True)
            (drop): Dropout(p=0.0, inplace=False)
          )
        )
        (drop_path): PointSequential(
          (0): DropPath(drop_prob=0.218)
        )
      )
      (block5): Block(
        (cpe): PointSequential(
          (0): SubMConv3d(128, 128, kernel_size=[3, 3, 3], stride=[1, 1, 1], padding=[0, 0, 0], dilation=[1, 1, 1], output_padding=[0, 0, 0], algo=ConvAlgo.MaskImplicitGemm)
          (1): Linear(in_features=128, out_features=128, bias=True)
          (2): LayerNorm((128,), eps=1e-05, elementwise_affine=True)
        )
        (norm1): PointSequential(
          (0): LayerNorm((128,), eps=1e-05, elementwise_affine=True)
        )
        (attn): SerializedAttention(
          (attn_drop): Dropout(p=0.0, inplace=False)
          (qkv): Linear(in_features=128, out_features=384, bias=True)
          (proj): Linear(in_features=128, out_features=128, bias=True)
          (proj_drop): Dropout(p=0.0, inplace=False)
          (softmax): Softmax(dim=-1)
        )
        (norm2): PointSequential(
          (0): LayerNorm((128,), eps=1e-05, elementwise_affine=True)
        )
        (mlp): PointSequential(
          (0): MLP(
            (fc1): Linear(in_features=128, out_features=512, bias=True)
            (act): GELU(approximate='none')
            (fc2): Linear(in_features=512, out_features=128, bias=True)
            (drop): Dropout(p=0.0, inplace=False)
          )
        )
        (drop_path): PointSequential(
          (0): DropPath(drop_prob=0.245)
        )
      )
    )
    (enc3): PointSequential(
      (down): SerializedPooling(
        (proj): Linear(in_features=128, out_features=256, bias=True)
        (norm): PointSequential(
          (0): BatchNorm1d(256, eps=0.001, momentum=0.01, affine=True, track_running_stats=True)
        )
        (act): PointSequential(
          (0): GELU(approximate='none')
        )
      )
      (block0): Block(
        (cpe): PointSequential(
          (0): SubMConv3d(256, 256, kernel_size=[3, 3, 3], stride=[1, 1, 1], padding=[0, 0, 0], dilation=[1, 1, 1], output_padding=[0, 0, 0], algo=ConvAlgo.MaskImplicitGemm)
          (1): Linear(in_features=256, out_features=256, bias=True)
          (2): LayerNorm((256,), eps=1e-05, elementwise_affine=True)
        )
        (norm1): PointSequential(
          (0): LayerNorm((256,), eps=1e-05, elementwise_affine=True)
        )
        (attn): SerializedAttention(
          (attn_drop): Dropout(p=0.0, inplace=False)
          (qkv): Linear(in_features=256, out_features=768, bias=True)
          (proj): Linear(in_features=256, out_features=256, bias=True)
          (proj_drop): Dropout(p=0.0, inplace=False)
          (softmax): Softmax(dim=-1)
        )
        (norm2): PointSequential(
          (0): LayerNorm((256,), eps=1e-05, elementwise_affine=True)
        )
        (mlp): PointSequential(
          (0): MLP(
            (fc1): Linear(in_features=256, out_features=1024, bias=True)
            (act): GELU(approximate='none')
            (fc2): Linear(in_features=1024, out_features=256, bias=True)
            (drop): Dropout(p=0.0, inplace=False)
          )
        )
        (drop_path): PointSequential(
          (0): DropPath(drop_prob=0.273)
        )
      )
      (block1): Block(
        (cpe): PointSequential(
          (0): SubMConv3d(256, 256, kernel_size=[3, 3, 3], stride=[1, 1, 1], padding=[0, 0, 0], dilation=[1, 1, 1], output_padding=[0, 0, 0], algo=ConvAlgo.MaskImplicitGemm)
          (1): Linear(in_features=256, out_features=256, bias=True)
          (2): LayerNorm((256,), eps=1e-05, elementwise_affine=True)
        )
        (norm1): PointSequential(
          (0): LayerNorm((256,), eps=1e-05, elementwise_affine=True)
        )
        (attn): SerializedAttention(
          (attn_drop): Dropout(p=0.0, inplace=False)
          (qkv): Linear(in_features=256, out_features=768, bias=True)
          (proj): Linear(in_features=256, out_features=256, bias=True)
          (proj_drop): Dropout(p=0.0, inplace=False)
          (softmax): Softmax(dim=-1)
        )
        (norm2): PointSequential(
          (0): LayerNorm((256,), eps=1e-05, elementwise_affine=True)
        )
        (mlp): PointSequential(
          (0): MLP(
            (fc1): Linear(in_features=256, out_features=1024, bias=True)
            (act): GELU(approximate='none')
            (fc2): Linear(in_features=1024, out_features=256, bias=True)
            (drop): Dropout(p=0.0, inplace=False)
          )
        )
        (drop_path): PointSequential(
          (0): DropPath(drop_prob=0.300)
        )
      )
    )
  )
  (dec): PointSequential(
    (dec2): PointSequential(
      (up): SerializedUnpooling(
        (proj): PointSequential(
          (0): Linear(in_features=256, out_features=128, bias=True)
          (1): BatchNorm1d(128, eps=0.001, momentum=0.01, affine=True, track_running_stats=True)
          (2): GELU(approximate='none')
        )
        (proj_skip): PointSequential(
          (0): Linear(in_features=128, out_features=128, bias=True)
          (1): BatchNorm1d(128, eps=0.001, momentum=0.01, affine=True, track_running_stats=True)
          (2): GELU(approximate='none')
        )
      )
      (block0): Block(
        (cpe): PointSequential(
          (0): SubMConv3d(128, 128, kernel_size=[3, 3, 3], stride=[1, 1, 1], padding=[0, 0, 0], dilation=[1, 1, 1], output_padding=[0, 0, 0], algo=ConvAlgo.MaskImplicitGemm)
          (1): Linear(in_features=128, out_features=128, bias=True)
          (2): LayerNorm((128,), eps=1e-05, elementwise_affine=True)
        )
        (norm1): PointSequential(
          (0): LayerNorm((128,), eps=1e-05, elementwise_affine=True)
        )
        (attn): SerializedAttention(
          (attn_drop): Dropout(p=0.0, inplace=False)
          (qkv): Linear(in_features=128, out_features=384, bias=True)
          (proj): Linear(in_features=128, out_features=128, bias=True)
          (proj_drop): Dropout(p=0.0, inplace=False)
          (softmax): Softmax(dim=-1)
        )
        (norm2): PointSequential(
          (0): LayerNorm((128,), eps=1e-05, elementwise_affine=True)
        )
        (mlp): PointSequential(
          (0): MLP(
            (fc1): Linear(in_features=128, out_features=512, bias=True)
            (act): GELU(approximate='none')
            (fc2): Linear(in_features=512, out_features=128, bias=True)
            (drop): Dropout(p=0.0, inplace=False)
          )
        )
        (drop_path): PointSequential(
          (0): DropPath(drop_prob=0.300)
        )
      )
      (block1): Block(
        (cpe): PointSequential(
          (0): SubMConv3d(128, 128, kernel_size=[3, 3, 3], stride=[1, 1, 1], padding=[0, 0, 0], dilation=[1, 1, 1], output_padding=[0, 0, 0], algo=ConvAlgo.MaskImplicitGemm)
          (1): Linear(in_features=128, out_features=128, bias=True)
          (2): LayerNorm((128,), eps=1e-05, elementwise_affine=True)
        )
        (norm1): PointSequential(
          (0): LayerNorm((128,), eps=1e-05, elementwise_affine=True)
        )
        (attn): SerializedAttention(
          (attn_drop): Dropout(p=0.0, inplace=False)
          (qkv): Linear(in_features=128, out_features=384, bias=True)
          (proj): Linear(in_features=128, out_features=128, bias=True)
          (proj_drop): Dropout(p=0.0, inplace=False)
          (softmax): Softmax(dim=-1)
        )
        (norm2): PointSequential(
          (0): LayerNorm((128,), eps=1e-05, elementwise_affine=True)
        )
        (mlp): PointSequential(
          (0): MLP(
            (fc1): Linear(in_features=128, out_features=512, bias=True)
            (act): GELU(approximate='none')
            (fc2): Linear(in_features=512, out_features=128, bias=True)
            (drop): Dropout(p=0.0, inplace=False)
          )
        )
        (drop_path): PointSequential(
          (0): DropPath(drop_prob=0.240)
        )
      )
    )
    (dec1): PointSequential(
      (up): SerializedUnpooling(
        (proj): PointSequential(
          (0): Linear(in_features=128, out_features=64, bias=True)
          (1): BatchNorm1d(64, eps=0.001, momentum=0.01, affine=True, track_running_stats=True)
          (2): GELU(approximate='none')
        )
        (proj_skip): PointSequential(
          (0): Linear(in_features=64, out_features=64, bias=True)
          (1): BatchNorm1d(64, eps=0.001, momentum=0.01, affine=True, track_running_stats=True)
          (2): GELU(approximate='none')
        )
      )
      (block0): Block(
        (cpe): PointSequential(
          (0): SubMConv3d(64, 64, kernel_size=[3, 3, 3], stride=[1, 1, 1], padding=[0, 0, 0], dilation=[1, 1, 1], output_padding=[0, 0, 0], algo=ConvAlgo.MaskImplicitGemm)
          (1): Linear(in_features=64, out_features=64, bias=True)
          (2): LayerNorm((64,), eps=1e-05, elementwise_affine=True)
        )
        (norm1): PointSequential(
          (0): LayerNorm((64,), eps=1e-05, elementwise_affine=True)
        )
        (attn): SerializedAttention(
          (attn_drop): Dropout(p=0.0, inplace=False)
          (qkv): Linear(in_features=64, out_features=192, bias=True)
          (proj): Linear(in_features=64, out_features=64, bias=True)
          (proj_drop): Dropout(p=0.0, inplace=False)
          (softmax): Softmax(dim=-1)
        )
        (norm2): PointSequential(
          (0): LayerNorm((64,), eps=1e-05, elementwise_affine=True)
        )
        (mlp): PointSequential(
          (0): MLP(
            (fc1): Linear(in_features=64, out_features=256, bias=True)
            (act): GELU(approximate='none')
            (fc2): Linear(in_features=256, out_features=64, bias=True)
            (drop): Dropout(p=0.0, inplace=False)
          )
        )
        (drop_path): PointSequential(
          (0): DropPath(drop_prob=0.180)
        )
      )
      (block1): Block(
        (cpe): PointSequential(
          (0): SubMConv3d(64, 64, kernel_size=[3, 3, 3], stride=[1, 1, 1], padding=[0, 0, 0], dilation=[1, 1, 1], output_padding=[0, 0, 0], algo=ConvAlgo.MaskImplicitGemm)
          (1): Linear(in_features=64, out_features=64, bias=True)
          (2): LayerNorm((64,), eps=1e-05, elementwise_affine=True)
        )
        (norm1): PointSequential(
          (0): LayerNorm((64,), eps=1e-05, elementwise_affine=True)
        )
        (attn): SerializedAttention(
          (attn_drop): Dropout(p=0.0, inplace=False)
          (qkv): Linear(in_features=64, out_features=192, bias=True)
          (proj): Linear(in_features=64, out_features=64, bias=True)
          (proj_drop): Dropout(p=0.0, inplace=False)
          (softmax): Softmax(dim=-1)
        )
        (norm2): PointSequential(
          (0): LayerNorm((64,), eps=1e-05, elementwise_affine=True)
        )
        (mlp): PointSequential(
          (0): MLP(
            (fc1): Linear(in_features=64, out_features=256, bias=True)
            (act): GELU(approximate='none')
            (fc2): Linear(in_features=256, out_features=64, bias=True)
            (drop): Dropout(p=0.0, inplace=False)
          )
        )
        (drop_path): PointSequential(
          (0): DropPath(drop_prob=0.120)
        )
      )
    )
    (dec0): PointSequential(
      (up): SerializedUnpooling(
        (proj): PointSequential(
          (0): Linear(in_features=64, out_features=64, bias=True)
          (1): BatchNorm1d(64, eps=0.001, momentum=0.01, affine=True, track_running_stats=True)
          (2): GELU(approximate='none')
        )
        (proj_skip): PointSequential(
          (0): Linear(in_features=32, out_features=64, bias=True)
          (1): BatchNorm1d(64, eps=0.001, momentum=0.01, affine=True, track_running_stats=True)
          (2): GELU(approximate='none')
        )
      )
      (block0): Block(
        (cpe): PointSequential(
          (0): SubMConv3d(64, 64, kernel_size=[3, 3, 3], stride=[1, 1, 1], padding=[0, 0, 0], dilation=[1, 1, 1], output_padding=[0, 0, 0], algo=ConvAlgo.MaskImplicitGemm)
          (1): Linear(in_features=64, out_features=64, bias=True)
          (2): LayerNorm((64,), eps=1e-05, elementwise_affine=True)
        )
        (norm1): PointSequential(
          (0): LayerNorm((64,), eps=1e-05, elementwise_affine=True)
        )
        (attn): SerializedAttention(
          (attn_drop): Dropout(p=0.0, inplace=False)
          (qkv): Linear(in_features=64, out_features=192, bias=True)
          (proj): Linear(in_features=64, out_features=64, bias=True)
          (proj_drop): Dropout(p=0.0, inplace=False)
          (softmax): Softmax(dim=-1)
        )
        (norm2): PointSequential(
          (0): LayerNorm((64,), eps=1e-05, elementwise_affine=True)
        )
        (mlp): PointSequential(
          (0): MLP(
            (fc1): Linear(in_features=64, out_features=256, bias=True)
            (act): GELU(approximate='none')
            (fc2): Linear(in_features=256, out_features=64, bias=True)
            (drop): Dropout(p=0.0, inplace=False)
          )
        )
        (drop_path): PointSequential(
          (0): DropPath(drop_prob=0.060)
        )
      )
      (block1): Block(
        (cpe): PointSequential(
          (0): SubMConv3d(64, 64, kernel_size=[3, 3, 3], stride=[1, 1, 1], padding=[0, 0, 0], dilation=[1, 1, 1], output_padding=[0, 0, 0], algo=ConvAlgo.MaskImplicitGemm)
          (1): Linear(in_features=64, out_features=64, bias=True)
          (2): LayerNorm((64,), eps=1e-05, elementwise_affine=True)
        )
        (norm1): PointSequential(
          (0): LayerNorm((64,), eps=1e-05, elementwise_affine=True)
        )
        (attn): SerializedAttention(
          (attn_drop): Dropout(p=0.0, inplace=False)
          (qkv): Linear(in_features=64, out_features=192, bias=True)
          (proj): Linear(in_features=64, out_features=64, bias=True)
          (proj_drop): Dropout(p=0.0, inplace=False)
          (softmax): Softmax(dim=-1)
        )
        (norm2): PointSequential(
          (0): LayerNorm((64,), eps=1e-05, elementwise_affine=True)
        )
        (mlp): PointSequential(
          (0): MLP(
            (fc1): Linear(in_features=64, out_features=256, bias=True)
            (act): GELU(approximate='none')
            (fc2): Linear(in_features=256, out_features=64, bias=True)
            (drop): Dropout(p=0.0, inplace=False)
          )
        )
        (drop_path): PointSequential(
          (0): Identity()
        )
      )
    )
  )
  (head): Linear(in_features=64, out_features=2, bias=True)
)
[2025-09-19 13:17:42,826 INFO train.py line 103 12772] 
===== Epoch 1/100 =====
[2025-09-19 13:23:39,930 INFO train.py line 29 14663] 使用配置文件: configs/wind_shear/pointtransformer_v3.yaml
[2025-09-19 13:23:39,930 INFO train.py line 30 14663] 配置详情: {'model': {'type': 'PT-v3m1', 'in_channels': 9, 'num_classes': 2, 'cls_mode': False, 'order': ['z', 'z-trans'
…
